Model: "sequential"
_________________________________________________________________
Layer (type)                 Output Shape              Param #   
=================================================================
conv1 (Conv2D)               (None, 24, 24, 20)        520       
_________________________________________________________________
batch_normalization (BatchNo (None, 24, 24, 20)        80        
_________________________________________________________________
max_pooling2d (MaxPooling2D) (None, 12, 12, 20)        0         
_________________________________________________________________
flatten (Flatten)            (None, 2880)              0         
_________________________________________________________________
dense (Dense)                (None, 64)                184384    
_________________________________________________________________
dense_1 (Dense)              (None, 10)                650       
=================================================================
Total params: 185,634
Trainable params: 185,594
Non-trainable params: 40
_________________________________________________________________
(60000,)
4
Model: "sequential"
_________________________________________________________________
Layer (type)                 Output Shape              Param #   
=================================================================
conv1 (Conv2D)               (None, 24, 24, 20)        520       
_________________________________________________________________
batch_normalization (BatchNo (None, 24, 24, 20)        80        
_________________________________________________________________
max_pooling2d (MaxPooling2D) (None, 12, 12, 20)        0         
_________________________________________________________________
flatten (Flatten)            (None, 2880)              0         
_________________________________________________________________
dense (Dense)                (None, 64)                184384    
_________________________________________________________________
dense_1 (Dense)              (None, 10)                650       
=================================================================
Total params: 185,634
Trainable params: 185,594
Non-trainable params: 40
_________________________________________________________________
(60000,)
4
Model: "sequential"
_________________________________________________________________
Layer (type)                 Output Shape              Param #   
=================================================================
conv1 (Conv2D)               (None, 24, 24, 20)        520       
_________________________________________________________________
batch_normalization (BatchNo (None, 24, 24, 20)        80        
_________________________________________________________________
max_pooling2d (MaxPooling2D) (None, 12, 12, 20)        0         
_________________________________________________________________
flatten (Flatten)            (None, 2880)              0         
_________________________________________________________________
dense (Dense)                (None, 64)                184384    
_________________________________________________________________
dense_1 (Dense)              (None, 10)                650       
=================================================================
Total params: 185,634
Trainable params: 185,594
Non-trainable params: 40
_________________________________________________________________
(60000,)
4
